…
[11/15 18:50:39][INFO] kinetics.py:  191: Constructing VRC dataloader (size: 850 skip_rows 0) from /cluster/scratch/amitra/Full_Dataset/test.csv 
[11/15 18:50:39][INFO] test_net.py:  234: Testing model for 850 iterations
[11/15 18:51:42][INFO] test_net.py:  199: Average time for 100 epochs of testing: 0.5596050545806065 seconds
[11/15 19:08:51][INFO] kinetics.py:  108: Constructing VRC test...
[11/15 19:08:51][INFO] kinetics.py:  191: Constructing VRC dataloader (size: 850 skip_rows 0) from /cluster/scratch/amitra/Full_Dataset/test.csv 
[11/15 19:08:51][INFO] test_net.py:  234: Testing model for 850 iterations
[11/15 19:08:53][INFO] misc.py:  192: Model:
X3D(
  (s1): VideoModelStem(
    (pathway0_stem): X3DStem(
      (conv_xy): Conv3d(3, 24, kernel_size=(1, 3, 3), stride=(1, 2, 2), padding=(0, 1, 1), bias=False)
      (conv): Conv3d(24, 24, kernel_size=(5, 1, 1), stride=(1, 1, 1), padding=(2, 0, 0), groups=24, bias=False)
      (bn): BatchNorm3d(24, eps=1e-05, momentum=0.1, affine=True, track_running_stats=True)
      (relu): ReLU(inplace=True)
    )
  )
  (s2): ResStage(
    (pathway0_res0): ResBlock(
      (branch1): Conv3d(24, 24, kernel_size=(1, 1, 1), stride=(1, 2, 2), bias=False)
      (branch1_bn): BatchNorm3d(24, eps=1e-05, momentum=0.1, affine=True, track_running_stats=True)
      (branch2): X3DTransform(
        (a): Conv3d(24, 54, kernel_size=(1, 1, 1), stride=(1, 1, 1), bias=False)
        (a_bn): BatchNorm3d(54, eps=1e-05, momentum=0.1, affine=True, track_running_stats=True)
        (a_relu): ReLU(inplace=True)
        (b): Conv3d(54, 54, kernel_size=(3, 3, 3), stride=(1, 2, 2), padding=(1, 1, 1), groups=54, bias=False)
        (b_bn): BatchNorm3d(54, eps=1e-05, momentum=0.1, affine=True, track_running_stats=True)
        (se): SE(
          (avg_pool): AdaptiveAvgPool3d(output_size=(1, 1, 1))
          (fc1): Conv3d(54, 8, kernel_size=(1, 1, 1), stride=(1, 1, 1))
          (fc1_act): ReLU()
          (fc2): Conv3d(8, 54, kernel_size=(1, 1, 1), stride=(1, 1, 1))
          (fc2_sig): Sigmoid()
        )
        (b_relu): Swish()
        (c): Conv3d(54, 24, kernel_size=(1, 1, 1), stride=(1, 1, 1), bias=False)
        (c_bn): BatchNorm3d(24, eps=1e-05, momentum=0.1, affine=True, track_running_stats=True)
      )
      (relu): ReLU(inplace=True)
    )
    (pathway0_res1): ResBlock(
      (branch2): X3DTransform(
        (a): Conv3d(24, 54, kernel_size=(1, 1, 1), stride=(1, 1, 1), bias=False)
        (a_bn): BatchNorm3d(54, eps=1e-05, momentum=0.1, affine=True, track_running_stats=True)
        (a_relu): ReLU(inplace=True)
        (b): Conv3d(54, 54, kernel_size=(3, 3, 3), stride=(1, 1, 1), padding=(1, 1, 1), groups=54, bias=False)
        (b_bn): BatchNorm3d(54, eps=1e-05, momentum=0.1, affine=True, track_running_stats=True)
        (b_relu): Swish()
        (c): Conv3d(54, 24, kernel_size=(1, 1, 1), stride=(1, 1, 1), bias=False)
        (c_bn): BatchNorm3d(24, eps=1e-05, momentum=0.1, affine=True, track_running_stats=True)
      )
      (relu): ReLU(inplace=True)
    )
    (pathway0_res2): ResBlock(
      (branch2): X3DTransform(
        (a): Conv3d(24, 54, kernel_size=(1, 1, 1), stride=(1, 1, 1), bias=False)
        (a_bn): BatchNorm3d(54, eps=1e-05, momentum=0.1, affine=True, track_running_stats=True)
        (a_relu): ReLU(inplace=True)
        (b): Conv3d(54, 54, kernel_size=(3, 3, 3), stride=(1, 1, 1), padding=(1, 1, 1), groups=54, bias=False)
        (b_bn): BatchNorm3d(54, eps=1e-05, momentum=0.1, affine=True, track_running_stats=True)
        (se): SE(
          (avg_pool): AdaptiveAvgPool3d(output_size=(1, 1, 1))
          (fc1): Conv3d(54, 8, kernel_size=(1, 1, 1), stride=(1, 1, 1))
          (fc1_act): ReLU()
          (fc2): Conv3d(8, 54, kernel_size=(1, 1, 1), stride=(1, 1, 1))
          (fc2_sig): Sigmoid()
        )
        (b_relu): Swish()
        (c): Conv3d(54, 24, kernel_size=(1, 1, 1), stride=(1, 1, 1), bias=False)
        (c_bn): BatchNorm3d(24, eps=1e-05, momentum=0.1, affine=True, track_running_stats=True)
      )
      (relu): ReLU(inplace=True)
    )
  )
  (s3): ResStage(
    (pathway0_res0): ResBlock(
      (branch1): Conv3d(24, 48, kernel_size=(1, 1, 1), stride=(1, 2, 2), bias=False)
      (branch1_bn): BatchNorm3d(48, eps=1e-05, momentum=0.1, affine=True, track_running_stats=True)
      (branch2): X3DTransform(
        (a): Conv3d(24, 108, kernel_size=(1, 1, 1), stride=(1, 1, 1), bias=False)
        (a_bn): BatchNorm3d(108, eps=1e-05, momentum=0.1, affine=True, track_running_stats=True)
        (a_relu): ReLU(inplace=True)
        (b): Conv3d(108, 108, kernel_size=(3, 3, 3), stride=(1, 2, 2), padding=(1, 1, 1), groups=108, bias=False)
        (b_bn): BatchNorm3d(108, eps=1e-05, momentum=0.1, affine=True, track_running_stats=True)
        (se): SE(
          (avg_pool): AdaptiveAvgPool3d(output_size=(1, 1, 1))
          (fc1): Conv3d(108, 8, kernel_size=(1, 1, 1), stride=(1, 1, 1))
          (fc1_act): ReLU()
          (fc2): Conv3d(8, 108, kernel_size=(1, 1, 1), stride=(1, 1, 1))
          (fc2_sig): Sigmoid()
        )
        (b_relu): Swish()
        (c): Conv3d(108, 48, kernel_size=(1, 1, 1), stride=(1, 1, 1), bias=False)
        (c_bn): BatchNorm3d(48, eps=1e-05, momentum=0.1, affine=True, track_running_stats=True)
      )
      (relu): ReLU(inplace=True)
    )
    (pathway0_res1): ResBlock(
      (branch2): X3DTransform(
        (a): Conv3d(48, 108, kernel_size=(1, 1, 1), stride=(1, 1, 1), bias=False)
        (a_bn): BatchNorm3d(108, eps=1e-05, momentum=0.1, affine=True, track_running_stats=True)
        (a_relu): ReLU(inplace=True)
        (b): Conv3d(108, 108, kernel_size=(3, 3, 3), stride=(1, 1, 1), padding=(1, 1, 1), groups=108, bias=False)
        (b_bn): BatchNorm3d(108, eps=1e-05, momentum=0.1, affine=True, track_running_stats=True)
        (b_relu): Swish()
        (c): Conv3d(108, 48, kernel_size=(1, 1, 1), stride=(1, 1, 1), bias=False)
        (c_bn): BatchNorm3d(48, eps=1e-05, momentum=0.1, affine=True, track_running_stats=True)
      )
      (relu): ReLU(inplace=True)
    )
    (pathway0_res2): ResBlock(
      (branch2): X3DTransform(
        (a): Conv3d(48, 108, kernel_size=(1, 1, 1), stride=(1, 1, 1), bias=False)
        (a_bn): BatchNorm3d(108, eps=1e-05, momentum=0.1, affine=True, track_running_stats=True)
        (a_relu): ReLU(inplace=True)
        (b): Conv3d(108, 108, kernel_size=(3, 3, 3), stride=(1, 1, 1), padding=(1, 1, 1), groups=108, bias=False)
        (b_bn): BatchNorm3d(108, eps=1e-05, momentum=0.1, affine=True, track_running_stats=True)
        (se): SE(
          (avg_pool): AdaptiveAvgPool3d(output_size=(1, 1, 1))
          (fc1): Conv3d(108, 8, kernel_size=(1, 1, 1), stride=(1, 1, 1))
          (fc1_act): ReLU()
          (fc2): Conv3d(8, 108, kernel_size=(1, 1, 1), stride=(1, 1, 1))
          (fc2_sig): Sigmoid()
        )
        (b_relu): Swish()
        (c): Conv3d(108, 48, kernel_size=(1, 1, 1), stride=(1, 1, 1), bias=False)
        (c_bn): BatchNorm3d(48, eps=1e-05, momentum=0.1, affine=True, track_running_stats=True)
      )
      (relu): ReLU(inplace=True)
    )
    (pathway0_res3): ResBlock(
      (branch2): X3DTransform(
        (a): Conv3d(48, 108, kernel_size=(1, 1, 1), stride=(1, 1, 1), bias=False)
        (a_bn): BatchNorm3d(108, eps=1e-05, momentum=0.1, affine=True, track_running_stats=True)
        (a_relu): ReLU(inplace=True)
        (b): Conv3d(108, 108, kernel_size=(3, 3, 3), stride=(1, 1, 1), padding=(1, 1, 1), groups=108, bias=False)
        (b_bn): BatchNorm3d(108, eps=1e-05, momentum=0.1, affine=True, track_running_stats=True)
        (b_relu): Swish()
        (c): Conv3d(108, 48, kernel_size=(1, 1, 1), stride=(1, 1, 1), bias=False)
        (c_bn): BatchNorm3d(48, eps=1e-05, momentum=0.1, affine=True, track_running_stats=True)
      )
      (relu): ReLU(inplace=True)
    )
    (pathway0_res4): ResBlock(
      (branch2): X3DTransform(
        (a): Conv3d(48, 108, kernel_size=(1, 1, 1), stride=(1, 1, 1), bias=False)
        (a_bn): BatchNorm3d(108, eps=1e-05, momentum=0.1, affine=True, track_running_stats=True)
        (a_relu): ReLU(inplace=True)
        (b): Conv3d(108, 108, kernel_size=(3, 3, 3), stride=(1, 1, 1), padding=(1, 1, 1), groups=108, bias=False)
        (b_bn): BatchNorm3d(108, eps=1e-05, momentum=0.1, affine=True, track_running_stats=True)
        (se): SE(
          (avg_pool): AdaptiveAvgPool3d(output_size=(1, 1, 1))
          (fc1): Conv3d(108, 8, kernel_size=(1, 1, 1), stride=(1, 1, 1))
          (fc1_act): ReLU()
          (fc2): Conv3d(8, 108, kernel_size=(1, 1, 1), stride=(1, 1, 1))
          (fc2_sig): Sigmoid()
        )
        (b_relu): Swish()
        (c): Conv3d(108, 48, kernel_size=(1, 1, 1), stride=(1, 1, 1), bias=False)
        (c_bn): BatchNorm3d(48, eps=1e-05, momentum=0.1, affine=True, track_running_stats=True)
      )
      (relu): ReLU(inplace=True)
    )
  )
  (s4): ResStage(
    (pathway0_res0): ResBlock(
      (branch1): Conv3d(48, 96, kernel_size=(1, 1, 1), stride=(1, 2, 2), bias=False)
      (branch1_bn): BatchNorm3d(96, eps=1e-05, momentum=0.1, affine=True, track_running_stats=True)
      (branch2): X3DTransform(
        (a): Conv3d(48, 216, kernel_size=(1, 1, 1), stride=(1, 1, 1), bias=False)
        (a_bn): BatchNorm3d(216, eps=1e-05, momentum=0.1, affine=True, track_running_stats=True)
        (a_relu): ReLU(inplace=True)
        (b): Conv3d(216, 216, kernel_size=(3, 3, 3), stride=(1, 2, 2), padding=(1, 1, 1), groups=216, bias=False)
        (b_bn): BatchNorm3d(216, eps=1e-05, momentum=0.1, affine=True, track_running_stats=True)
        (se): SE(
          (avg_pool): AdaptiveAvgPool3d(output_size=(1, 1, 1))
          (fc1): Conv3d(216, 16, kernel_size=(1, 1, 1), stride=(1, 1, 1))
          (fc1_act): ReLU()
          (fc2): Conv3d(16, 216, kernel_size=(1, 1, 1), stride=(1, 1, 1))
          (fc2_sig): Sigmoid()
        )
        (b_relu): Swish()
        (c): Conv3d(216, 96, kernel_size=(1, 1, 1), stride=(1, 1, 1), bias=False)
        (c_bn): BatchNorm3d(96, eps=1e-05, momentum=0.1, affine=True, track_running_stats=True)
      )
      (relu): ReLU(inplace=True)
    )
    (pathway0_res1): ResBlock(
      (branch2): X3DTransform(
        (a): Conv3d(96, 216, kernel_size=(1, 1, 1), stride=(1, 1, 1), bias=False)
        (a_bn): BatchNorm3d(216, eps=1e-05, momentum=0.1, affine=True, track_running_stats=True)
        (a_relu): ReLU(inplace=True)
        (b): Conv3d(216, 216, kernel_size=(3, 3, 3), stride=(1, 1, 1), padding=(1, 1, 1), groups=216, bias=False)
        (b_bn): BatchNorm3d(216, eps=1e-05, momentum=0.1, affine=True, track_running_stats=True)
        (b_relu): Swish()
        (c): Conv3d(216, 96, kernel_size=(1, 1, 1), stride=(1, 1, 1), bias=False)
        (c_bn): BatchNorm3d(96, eps=1e-05, momentum=0.1, affine=True, track_running_stats=True)
      )
      (relu): ReLU(inplace=True)
    )
    (pathway0_res2): ResBlock(
      (branch2): X3DTransform(
        (a): Conv3d(96, 216, kernel_size=(1, 1, 1), stride=(1, 1, 1), bias=False)
        (a_bn): BatchNorm3d(216, eps=1e-05, momentum=0.1, affine=True, track_running_stats=True)
        (a_relu): ReLU(inplace=True)
        (b): Conv3d(216, 216, kernel_size=(3, 3, 3), stride=(1, 1, 1), padding=(1, 1, 1), groups=216, bias=False)
        (b_bn): BatchNorm3d(216, eps=1e-05, momentum=0.1, affine=True, track_running_stats=True)
        (se): SE(
          (avg_pool): AdaptiveAvgPool3d(output_size=(1, 1, 1))
          (fc1): Conv3d(216, 16, kernel_size=(1, 1, 1), stride=(1, 1, 1))
          (fc1_act): ReLU()
          (fc2): Conv3d(16, 216, kernel_size=(1, 1, 1), stride=(1, 1, 1))
          (fc2_sig): Sigmoid()
        )
        (b_relu): Swish()
        (c): Conv3d(216, 96, kernel_size=(1, 1, 1), stride=(1, 1, 1), bias=False)
        (c_bn): BatchNorm3d(96, eps=1e-05, momentum=0.1, affine=True, track_running_stats=True)
      )
      (relu): ReLU(inplace=True)
    )
    (pathway0_res3): ResBlock(
      (branch2): X3DTransform(
        (a): Conv3d(96, 216, kernel_size=(1, 1, 1), stride=(1, 1, 1), bias=False)
        (a_bn): BatchNorm3d(216, eps=1e-05, momentum=0.1, affine=True, track_running_stats=True)
        (a_relu): ReLU(inplace=True)
        (b): Conv3d(216, 216, kernel_size=(3, 3, 3), stride=(1, 1, 1), padding=(1, 1, 1), groups=216, bias=False)
        (b_bn): BatchNorm3d(216, eps=1e-05, momentum=0.1, affine=True, track_running_stats=True)
        (b_relu): Swish()
        (c): Conv3d(216, 96, kernel_size=(1, 1, 1), stride=(1, 1, 1), bias=False)
        (c_bn): BatchNorm3d(96, eps=1e-05, momentum=0.1, affine=True, track_running_stats=True)
      )
      (relu): ReLU(inplace=True)
    )
    (pathway0_res4): ResBlock(
      (branch2): X3DTransform(
        (a): Conv3d(96, 216, kernel_size=(1, 1, 1), stride=(1, 1, 1), bias=False)
        (a_bn): BatchNorm3d(216, eps=1e-05, momentum=0.1, affine=True, track_running_stats=True)
        (a_relu): ReLU(inplace=True)
        (b): Conv3d(216, 216, kernel_size=(3, 3, 3), stride=(1, 1, 1), padding=(1, 1, 1), groups=216, bias=False)
        (b_bn): BatchNorm3d(216, eps=1e-05, momentum=0.1, affine=True, track_running_stats=True)
        (se): SE(
          (avg_pool): AdaptiveAvgPool3d(output_size=(1, 1, 1))
          (fc1): Conv3d(216, 16, kernel_size=(1, 1, 1), stride=(1, 1, 1))
          (fc1_act): ReLU()
          (fc2): Conv3d(16, 216, kernel_size=(1, 1, 1), stride=(1, 1, 1))
          (fc2_sig): Sigmoid()
        )
        (b_relu): Swish()
        (c): Conv3d(216, 96, kernel_size=(1, 1, 1), stride=(1, 1, 1), bias=False)
        (c_bn): BatchNorm3d(96, eps=1e-05, momentum=0.1, affine=True, track_running_stats=True)
      )
      (relu): ReLU(inplace=True)
    )
    (pathway0_res5): ResBlock(
      (branch2): X3DTransform(
        (a): Conv3d(96, 216, kernel_size=(1, 1, 1), stride=(1, 1, 1), bias=False)
        (a_bn): BatchNorm3d(216, eps=1e-05, momentum=0.1, affine=True, track_running_stats=True)
        (a_relu): ReLU(inplace=True)
        (b): Conv3d(216, 216, kernel_size=(3, 3, 3), stride=(1, 1, 1), padding=(1, 1, 1), groups=216, bias=False)
        (b_bn): BatchNorm3d(216, eps=1e-05, momentum=0.1, affine=True, track_running_stats=True)
        (b_relu): Swish()
        (c): Conv3d(216, 96, kernel_size=(1, 1, 1), stride=(1, 1, 1), bias=False)
        (c_bn): BatchNorm3d(96, eps=1e-05, momentum=0.1, affine=True, track_running_stats=True)
      )
      (relu): ReLU(inplace=True)
    )
    (pathway0_res6): ResBlock(
      (branch2): X3DTransform(
        (a): Conv3d(96, 216, kernel_size=(1, 1, 1), stride=(1, 1, 1), bias=False)
        (a_bn): BatchNorm3d(216, eps=1e-05, momentum=0.1, affine=True, track_running_stats=True)
        (a_relu): ReLU(inplace=True)
        (b): Conv3d(216, 216, kernel_size=(3, 3, 3), stride=(1, 1, 1), padding=(1, 1, 1), groups=216, bias=False)
        (b_bn): BatchNorm3d(216, eps=1e-05, momentum=0.1, affine=True, track_running_stats=True)
        (se): SE(
          (avg_pool): AdaptiveAvgPool3d(output_size=(1, 1, 1))
          (fc1): Conv3d(216, 16, kernel_size=(1, 1, 1), stride=(1, 1, 1))
          (fc1_act): ReLU()
          (fc2): Conv3d(16, 216, kernel_size=(1, 1, 1), stride=(1, 1, 1))
          (fc2_sig): Sigmoid()
        )
        (b_relu): Swish()
        (c): Conv3d(216, 96, kernel_size=(1, 1, 1), stride=(1, 1, 1), bias=False)
        (c_bn): BatchNorm3d(96, eps=1e-05, momentum=0.1, affine=True, track_running_stats=True)
      )
      (relu): ReLU(inplace=True)
    )
    (pathway0_res7): ResBlock(
      (branch2): X3DTransform(
        (a): Conv3d(96, 216, kernel_size=(1, 1, 1), stride=(1, 1, 1), bias=False)
        (a_bn): BatchNorm3d(216, eps=1e-05, momentum=0.1, affine=True, track_running_stats=True)
        (a_relu): ReLU(inplace=True)
        (b): Conv3d(216, 216, kernel_size=(3, 3, 3), stride=(1, 1, 1), padding=(1, 1, 1), groups=216, bias=False)
        (b_bn): BatchNorm3d(216, eps=1e-05, momentum=0.1, affine=True, track_running_stats=True)
        (b_relu): Swish()
        (c): Conv3d(216, 96, kernel_size=(1, 1, 1), stride=(1, 1, 1), bias=False)
        (c_bn): BatchNorm3d(96, eps=1e-05, momentum=0.1, affine=True, track_running_stats=True)
      )
      (relu): ReLU(inplace=True)
    )
    (pathway0_res8): ResBlock(
      (branch2): X3DTransform(
        (a): Conv3d(96, 216, kernel_size=(1, 1, 1), stride=(1, 1, 1), bias=False)
        (a_bn): BatchNorm3d(216, eps=1e-05, momentum=0.1, affine=True, track_running_stats=True)
        (a_relu): ReLU(inplace=True)
        (b): Conv3d(216, 216, kernel_size=(3, 3, 3), stride=(1, 1, 1), padding=(1, 1, 1), groups=216, bias=False)
        (b_bn): BatchNorm3d(216, eps=1e-05, momentum=0.1, affine=True, track_running_stats=True)
        (se): SE(
          (avg_pool): AdaptiveAvgPool3d(output_size=(1, 1, 1))
          (fc1): Conv3d(216, 16, kernel_size=(1, 1, 1), stride=(1, 1, 1))
          (fc1_act): ReLU()
          (fc2): Conv3d(16, 216, kernel_size=(1, 1, 1), stride=(1, 1, 1))
          (fc2_sig): Sigmoid()
        )
        (b_relu): Swish()
        (c): Conv3d(216, 96, kernel_size=(1, 1, 1), stride=(1, 1, 1), bias=False)
        (c_bn): BatchNorm3d(96, eps=1e-05, momentum=0.1, affine=True, track_running_stats=True)
      )
      (relu): ReLU(inplace=True)
    )
    (pathway0_res9): ResBlock(
      (branch2): X3DTransform(
        (a): Conv3d(96, 216, kernel_size=(1, 1, 1), stride=(1, 1, 1), bias=False)
        (a_bn): BatchNorm3d(216, eps=1e-05, momentum=0.1, affine=True, track_running_stats=True)
        (a_relu): ReLU(inplace=True)
        (b): Conv3d(216, 216, kernel_size=(3, 3, 3), stride=(1, 1, 1), padding=(1, 1, 1), groups=216, bias=False)
        (b_bn): BatchNorm3d(216, eps=1e-05, momentum=0.1, affine=True, track_running_stats=True)
        (b_relu): Swish()
        (c): Conv3d(216, 96, kernel_size=(1, 1, 1), stride=(1, 1, 1), bias=False)
        (c_bn): BatchNorm3d(96, eps=1e-05, momentum=0.1, affine=True, track_running_stats=True)
      )
      (relu): ReLU(inplace=True)
    )
    (pathway0_res10): ResBlock(
      (branch2): X3DTransform(
        (a): Conv3d(96, 216, kernel_size=(1, 1, 1), stride=(1, 1, 1), bias=False)
        (a_bn): BatchNorm3d(216, eps=1e-05, momentum=0.1, affine=True, track_running_stats=True)
        (a_relu): ReLU(inplace=True)
        (b): Conv3d(216, 216, kernel_size=(3, 3, 3), stride=(1, 1, 1), padding=(1, 1, 1), groups=216, bias=False)
        (b_bn): BatchNorm3d(216, eps=1e-05, momentum=0.1, affine=True, track_running_stats=True)
        (se): SE(
          (avg_pool): AdaptiveAvgPool3d(output_size=(1, 1, 1))
          (fc1): Conv3d(216, 16, kernel_size=(1, 1, 1), stride=(1, 1, 1))
          (fc1_act): ReLU()
          (fc2): Conv3d(16, 216, kernel_size=(1, 1, 1), stride=(1, 1, 1))
          (fc2_sig): Sigmoid()
        )
        (b_relu): Swish()
        (c): Conv3d(216, 96, kernel_size=(1, 1, 1), stride=(1, 1, 1), bias=False)
        (c_bn): BatchNorm3d(96, eps=1e-05, momentum=0.1, affine=True, track_running_stats=True)
      )
      (relu): ReLU(inplace=True)
    )
  )
  (s5): ResStage(
    (pathway0_res0): ResBlock(
      (branch1): Conv3d(96, 192, kernel_size=(1, 1, 1), stride=(1, 2, 2), bias=False)
      (branch1_bn): BatchNorm3d(192, eps=1e-05, momentum=0.1, affine=True, track_running_stats=True)
      (branch2): X3DTransform(
        (a): Conv3d(96, 432, kernel_size=(1, 1, 1), stride=(1, 1, 1), bias=False)
        (a_bn): BatchNorm3d(432, eps=1e-05, momentum=0.1, affine=True, track_running_stats=True)
        (a_relu): ReLU(inplace=True)
        (b): Conv3d(432, 432, kernel_size=(3, 3, 3), stride=(1, 2, 2), padding=(1, 1, 1), groups=432, bias=False)
        (b_bn): BatchNorm3d(432, eps=1e-05, momentum=0.1, affine=True, track_running_stats=True)
        (se): SE(
          (avg_pool): AdaptiveAvgPool3d(output_size=(1, 1, 1))
          (fc1): Conv3d(432, 32, kernel_size=(1, 1, 1), stride=(1, 1, 1))
          (fc1_act): ReLU()
          (fc2): Conv3d(32, 432, kernel_size=(1, 1, 1), stride=(1, 1, 1))
          (fc2_sig): Sigmoid()
        )
        (b_relu): Swish()
        (c): Conv3d(432, 192, kernel_size=(1, 1, 1), stride=(1, 1, 1), bias=False)
        (c_bn): BatchNorm3d(192, eps=1e-05, momentum=0.1, affine=True, track_running_stats=True)
      )
      (relu): ReLU(inplace=True)
    )
    (pathway0_res1): ResBlock(
      (branch2): X3DTransform(
        (a): Conv3d(192, 432, kernel_size=(1, 1, 1), stride=(1, 1, 1), bias=False)
        (a_bn): BatchNorm3d(432, eps=1e-05, momentum=0.1, affine=True, track_running_stats=True)
        (a_relu): ReLU(inplace=True)
        (b): Conv3d(432, 432, kernel_size=(3, 3, 3), stride=(1, 1, 1), padding=(1, 1, 1), groups=432, bias=False)
        (b_bn): BatchNorm3d(432, eps=1e-05, momentum=0.1, affine=True, track_running_stats=True)
        (b_relu): Swish()
        (c): Conv3d(432, 192, kernel_size=(1, 1, 1), stride=(1, 1, 1), bias=False)
        (c_bn): BatchNorm3d(192, eps=1e-05, momentum=0.1, affine=True, track_running_stats=True)
      )
      (relu): ReLU(inplace=True)
    )
    (pathway0_res2): ResBlock(
      (branch2): X3DTransform(
        (a): Conv3d(192, 432, kernel_size=(1, 1, 1), stride=(1, 1, 1), bias=False)
        (a_bn): BatchNorm3d(432, eps=1e-05, momentum=0.1, affine=True, track_running_stats=True)
        (a_relu): ReLU(inplace=True)
        (b): Conv3d(432, 432, kernel_size=(3, 3, 3), stride=(1, 1, 1), padding=(1, 1, 1), groups=432, bias=False)
        (b_bn): BatchNorm3d(432, eps=1e-05, momentum=0.1, affine=True, track_running_stats=True)
        (se): SE(
          (avg_pool): AdaptiveAvgPool3d(output_size=(1, 1, 1))
          (fc1): Conv3d(432, 32, kernel_size=(1, 1, 1), stride=(1, 1, 1))
          (fc1_act): ReLU()
          (fc2): Conv3d(32, 432, kernel_size=(1, 1, 1), stride=(1, 1, 1))
          (fc2_sig): Sigmoid()
        )
        (b_relu): Swish()
        (c): Conv3d(432, 192, kernel_size=(1, 1, 1), stride=(1, 1, 1), bias=False)
        (c_bn): BatchNorm3d(192, eps=1e-05, momentum=0.1, affine=True, track_running_stats=True)
      )
      (relu): ReLU(inplace=True)
    )
    (pathway0_res3): ResBlock(
      (branch2): X3DTransform(
        (a): Conv3d(192, 432, kernel_size=(1, 1, 1), stride=(1, 1, 1), bias=False)
        (a_bn): BatchNorm3d(432, eps=1e-05, momentum=0.1, affine=True, track_running_stats=True)
        (a_relu): ReLU(inplace=True)
        (b): Conv3d(432, 432, kernel_size=(3, 3, 3), stride=(1, 1, 1), padding=(1, 1, 1), groups=432, bias=False)
        (b_bn): BatchNorm3d(432, eps=1e-05, momentum=0.1, affine=True, track_running_stats=True)
        (b_relu): Swish()
        (c): Conv3d(432, 192, kernel_size=(1, 1, 1), stride=(1, 1, 1), bias=False)
        (c_bn): BatchNorm3d(192, eps=1e-05, momentum=0.1, affine=True, track_running_stats=True)
      )
      (relu): ReLU(inplace=True)
    )
    (pathway0_res4): ResBlock(
      (branch2): X3DTransform(
        (a): Conv3d(192, 432, kernel_size=(1, 1, 1), stride=(1, 1, 1), bias=False)
        (a_bn): BatchNorm3d(432, eps=1e-05, momentum=0.1, affine=True, track_running_stats=True)
        (a_relu): ReLU(inplace=True)
        (b): Conv3d(432, 432, kernel_size=(3, 3, 3), stride=(1, 1, 1), padding=(1, 1, 1), groups=432, bias=False)
        (b_bn): BatchNorm3d(432, eps=1e-05, momentum=0.1, affine=True, track_running_stats=True)
        (se): SE(
          (avg_pool): AdaptiveAvgPool3d(output_size=(1, 1, 1))
          (fc1): Conv3d(432, 32, kernel_size=(1, 1, 1), stride=(1, 1, 1))
          (fc1_act): ReLU()
          (fc2): Conv3d(32, 432, kernel_size=(1, 1, 1), stride=(1, 1, 1))
          (fc2_sig): Sigmoid()
        )
        (b_relu): Swish()
        (c): Conv3d(432, 192, kernel_size=(1, 1, 1), stride=(1, 1, 1), bias=False)
        (c_bn): BatchNorm3d(192, eps=1e-05, momentum=0.1, affine=True, track_running_stats=True)
      )
      (relu): ReLU(inplace=True)
    )
    (pathway0_res5): ResBlock(
      (branch2): X3DTransform(
        (a): Conv3d(192, 432, kernel_size=(1, 1, 1), stride=(1, 1, 1), bias=False)
        (a_bn): BatchNorm3d(432, eps=1e-05, momentum=0.1, affine=True, track_running_stats=True)
        (a_relu): ReLU(inplace=True)
        (b): Conv3d(432, 432, kernel_size=(3, 3, 3), stride=(1, 1, 1), padding=(1, 1, 1), groups=432, bias=False)
        (b_bn): BatchNorm3d(432, eps=1e-05, momentum=0.1, affine=True, track_running_stats=True)
        (b_relu): Swish()
        (c): Conv3d(432, 192, kernel_size=(1, 1, 1), stride=(1, 1, 1), bias=False)
        (c_bn): BatchNorm3d(192, eps=1e-05, momentum=0.1, affine=True, track_running_stats=True)
      )
      (relu): ReLU(inplace=True)
    )
    (pathway0_res6): ResBlock(
      (branch2): X3DTransform(
        (a): Conv3d(192, 432, kernel_size=(1, 1, 1), stride=(1, 1, 1), bias=False)
        (a_bn): BatchNorm3d(432, eps=1e-05, momentum=0.1, affine=True, track_running_stats=True)
        (a_relu): ReLU(inplace=True)
        (b): Conv3d(432, 432, kernel_size=(3, 3, 3), stride=(1, 1, 1), padding=(1, 1, 1), groups=432, bias=False)
        (b_bn): BatchNorm3d(432, eps=1e-05, momentum=0.1, affine=True, track_running_stats=True)
        (se): SE(
          (avg_pool): AdaptiveAvgPool3d(output_size=(1, 1, 1))
          (fc1): Conv3d(432, 32, kernel_size=(1, 1, 1), stride=(1, 1, 1))
          (fc1_act): ReLU()
          (fc2): Conv3d(32, 432, kernel_size=(1, 1, 1), stride=(1, 1, 1))
          (fc2_sig): Sigmoid()
        )
        (b_relu): Swish()
        (c): Conv3d(432, 192, kernel_size=(1, 1, 1), stride=(1, 1, 1), bias=False)
        (c_bn): BatchNorm3d(192, eps=1e-05, momentum=0.1, affine=True, track_running_stats=True)
      )
      (relu): ReLU(inplace=True)
    )
  )
  (head): X3DHead(
    (conv_5): Conv3d(192, 432, kernel_size=(1, 1, 1), stride=(1, 1, 1), bias=False)
    (conv_5_bn): BatchNorm3d(432, eps=1e-05, momentum=0.1, affine=True, track_running_stats=True)
    (conv_5_relu): ReLU(inplace=True)
    (avg_pool): AvgPool3d(kernel_size=[15, 3, 4], stride=1, padding=0)
    (lin_5): Conv3d(432, 2048, kernel_size=(1, 1, 1), stride=(1, 1, 1), bias=False)
    (lin_5_relu): ReLU(inplace=True)
    (dropout): Dropout(p=0.5, inplace=False)
    (projection): Linear(in_features=2048, out_features=13, bias=True)
    (act): Softmax(dim=4)
  )
)
[11/15 19:08:53][INFO] misc.py:  194: Params: 3,001,359
[11/15 19:08:53][INFO] misc.py:  195: Mem: 0.0 MB
[11/15 19:08:54][WARNING] jit_analysis.py:  499: Unsupported operator aten::adaptive_avg_pool3d encountered 15 time(s)
[11/15 19:08:54][WARNING] jit_analysis.py:  499: Unsupported operator aten::sigmoid encountered 15 time(s)
…
